…
model.fit(x_train, y_train, batch_size=64, epochs=10, validation_data=(x_test, y_test))

model.evaluate(x_test, y_test)

model.save('/kaggle/working/mindlock-model.h5')
/opt/conda/lib/python3.10/site-packages/scipy/__init__.py:146: UserWarning: A NumPy version >=1.16.5 and <1.23.0 is required for this version of SciPy (detected version 1.24.3
  warnings.warn(f"A NumPy version >={np_minversion} and <{np_maxversion}"
Model: "sequential"
_________________________________________________________________
 Layer (type)                Output Shape              Param #   
=================================================================
 conv2d (Conv2D)             (None, 9, 9, 128)         1280      
                                                                 
 batch_normalization (Batch  (None, 9, 9, 128)         512       
 Normalization)                                                  
                                                                 
 conv2d_1 (Conv2D)           (None, 9, 9, 128)         147584    
                                                                 
 batch_normalization_1 (Bat  (None, 9, 9, 128)         512       
 chNormalization)                                                
                                                                 
 conv2d_2 (Conv2D)           (None, 9, 9, 256)         295168    
                                                                 
 batch_normalization_2 (Bat  (None, 9, 9, 256)         1024      
 chNormalization)                                                
                                                                 
 conv2d_3 (Conv2D)           (None, 9, 9, 256)         590080    
                                                                 
 batch_normalization_3 (Bat  (None, 9, 9, 256)         1024      
 chNormalization)                                                
                                                                 
 conv2d_4 (Conv2D)           (None, 9, 9, 512)         1180160   
                                                                 
 batch_normalization_4 (Bat  (None, 9, 9, 512)         2048      
 chNormalization)                                                
                                                                 
 conv2d_5 (Conv2D)           (None, 9, 9, 512)         2359808   
                                                                 
 batch_normalization_5 (Bat  (None, 9, 9, 512)         2048      
 chNormalization)                                                
                                                                 
 conv2d_6 (Conv2D)           (None, 9, 9, 1024)        4719616   
                                                                 
 batch_normalization_6 (Bat  (None, 9, 9, 1024)        4096      
 chNormalization)                                                
                                                                 
 conv2d_7 (Conv2D)           (None, 9, 9, 9)           82953     
                                                                 
 flatten (Flatten)           (None, 729)               0         
                                                                 
 dense (Dense)               (None, 512)               373760    
                                                                 
 dense_1 (Dense)             (None, 729)               373977    
                                                                 
 layer_normalization (Layer  (None, 729)               1458      
 Normalization)                                                  
                                                                 
 reshape (Reshape)           (None, 9, 9, 9)           0         
                                                                 
 activation (Activation)     (None, 9, 9, 9)           0         
                                                                 
=================================================================
Total params: 10137108 (38.67 MB)
Trainable params: 10131476 (38.65 MB)
Non-trainable params: 5632 (22.00 KB)
_________________________________________________________________
Epoch 1/10
12500/12500 [==============================] - 422s 33ms/step - loss: 0.5487 - accuracy: 0.8022 - val_loss: 0.2488 - val_accuracy: 0.9100
…
